…
EEpfpR2A","executionInfo":{"status":"ok","timestamp":1776705299798,"user_tz":-330,"elapsed":782,"user":{"displayName":"Sayan Dutta","userId":"05238912039351443293"}},"outputId":"240b77a9-56af-49c9-aaf4-e8a58525990c"},"execution_count":85,"outputs":[{"output_type":"display_data","data":{"text/plain":["Loading weights:   0%|          | 0/131 [00:00<?, ?it/s]"],"application/vnd.jupyter.widget-view+json":{"version_major":2,"version_minor":0,"model_id":"eba781843f3d43bab5870688769b6ab1"}},"metadata":{}},{"output_type":"execute_result","data":{"text/plain":["T5ForConditionalGeneration(\n","  (shared): Embedding(32128, 512)\n","  (encoder): T5Stack(\n","    (embed_tokens): Embedding(32128, 512)\n","    (block): ModuleList(\n","      (0): T5Block(\n","        (layer): ModuleList(\n","          (0): T5LayerSelfAttention(\n","            (SelfAttention): T5Attention(\n","              (q): Linear(in_features=512, out_features=512, bias=False)\n","              (k): Linear(in_features=512, out_features=512, bias=False)\n","              (v): Linear(in_features=512, out_features=512, bias=False)\n","              (o): Linear(in_features=512, out_features=512, bias=False)\n","              (relative_attention_bias): Embedding(32, 8)\n","            )\n","            (layer_norm): T5LayerNorm()\n","            (dropout): Dropout(p=0.1, inplace=False)\n","          )\n","          (1): T5LayerFF(\n","            (DenseReluDense): T5DenseActDense(\n","              (wi): Linear(in_features=512, out_features=2048, bias=False)\n","              (wo): Linear(in_features=2048, out_features=512, bias=False)\n","              (dropout): Dropout(p=0.1, inplace=False)\n","              (act): ReLU()\n","            )\n","            (layer_norm): T5LayerNorm()\n","            (dropout): Dropout(p=0.1, inplace=False)\n","          )\n","        )\n","      )\n","      (1-5): 5 x T5Block(\n","        (layer): ModuleList(\n","          (0): T5LayerSelfAttention(\n","            (SelfAttention): T5Attention(\n","              (q): Linear(in_features=512, out_features=512, bias=False)\n","              (k): Linear(in_features=512, out_features=512, bias=False)\n","              (v): Linear(in_features=512, out_features=512, bias=False)\n","              (o): Linear(in_features=512, out_features=512, bias=False)\n","            )\n","            (layer_norm): T5LayerNorm()\n","            (dropout): Dropout(p=0.1, inplace=False)\n","          )\n","          (1): T5LayerFF(\n","            (DenseReluDense): T5DenseActDense(\n","              (wi): Linear(in_features=512, out_features=2048, bias=False)\n","              (wo): Linear(in_features=2048, out_features=512, bias=False)\n","              (dropout): Dropout(p=0.1, inplace=False)\n","              (act): ReLU()\n","            )\n","            (layer_norm): T5LayerNorm()\n","            (dropout): Dropout(p=0.1, inplace=False)\n","          )\n","        )\n","      )\n","    )\n","    (final_layer_norm): T5LayerNorm()\n","    (dropout): Dropout(p=0.1, inplace=False)\n","  )\n","  (decoder): T5Stack(\n","    (embed_tokens): Embedding(32128, 512)\n","    (block): ModuleList(\n","      (0): T5Block(\n","        (layer): ModuleList(\n","          (0): T5LayerSelfAttention(\n","            (SelfAttention): T5Attention(\n","              (q): Linear(in_features=512, out_features=512, bias=False)\n","              (k): Linear(in_features=512, out_features=512, bias=False)\n","              (v): Linear(in_features=512, out_features=512, bias=False)\n","              (o): Linear(in_features=512, out_features=512, bias=False)\n","              (relative_attention_bias): Embedding(32, 8)\n","            )\n","            (layer_norm): T5LayerNorm()\n","            (dropout): Dropout(p=0.1, inplace=False)\n","          )\n","          (1): T5LayerCrossAttention(\n","            (EncDecAttention): T5Attention(\n","              (q): Linear(in_features=512, out_features=512, bias=False)\n","              (k): Linear(in_features=512, out_features=512, bias=False)\n","              (v): Linear(in_features=512, out_features=512, bias=False)\n","              (o): Linear(in_features=512, out_features=512, bias=False)\n","            )\n","            (layer_norm): T5LayerNorm()\n","            (dropout): Dropout(p=0.1, inplace=False)\n","          )\n","          (2): T5LayerFF(\n","            (DenseReluDense): T5DenseActDense(\n","              (wi): Linear(in_features=512, out_features=2048, bias=False)\n","              (wo): Linear(in_features=2048, out_features=512, bias=False)\n","              (dropout): Dropout(p=0.1, inplace=False)\n","              (act): ReLU()\n","            )\n","            (layer_norm): T5LayerNorm()\n","            (dropout): Dropout(p=0.1, inplace=False)\n","          )\n","        )\n","      )\n","      (1-5): 5 x T5Block(\n","        (layer): ModuleList(\n","          (0): T5LayerSelfAttention(\n","            (SelfAttention): T5Attention(\n","              (q): Linear(in_features=512, out_features=512, bias=False)\n","              (k): Linear(in_features=512, out_features=512, bias=False)\n","              (v): Linear(in_features=512, out_features=512, bias=False)\n","              (o): Linear(in_features=512, out_features=512, bias=False)\n","            )\n","            (layer_norm): T5LayerNorm()\n","            (dropout): Dropout(p=0.1, inplace=False)\n","          )\n","          (1): T5LayerCrossAttention(\n","            (EncDecAttention): T5Attention(\n","              (q): Linear(in_features=512, out_features=512, bias=False)\n","              (k): Linear(in_features=512, out_features=512, bias=False)\n","              (v): Linear(in_features=512, out_features=512, bias=False)\n","              (o): Linear(in_features=512, out_features=512, bias=False)\n","            )\n","            (layer_norm): T5LayerNorm()\n","            (dropout): Dropout(p=0.1, inplace=False)\n","          )\n","          (2): T5LayerFF(\n","            (DenseReluDense): T5DenseActDense(\n","              (wi): Linear(in_features=512, out_features=2048, bias=False)\n","              (wo): Linear(in_features=2048, out_features=512, bias=False)\n","              (dropout): Dropout(p=0.1, inplace=False)\n","              (act): ReLU()\n","            )\n","            (layer_norm): T5LayerNorm()\n","            (dropout): Dropout(p=0.1, inplace=False)\n","          )\n","        )\n","      )\n","    )\n","    (final_layer_norm): T5LayerNorm()\n","    (dropout): Dropout(p=0.1, inplace=False)\n","  )\n","  (lm_head): Linear(in_features=512, out_features=32128, bias=False)\n",")"]},"metadata":{},"execution_count":85}]},{"cell_type":"markdown","source":["## Inference Function: Emotion-Cause Prediction\n","\n","This function is designed to generate predictions from the trained T5 model for a given input sentence. It formats the input into a task-specific prompt, ensuring consistency with the format used during training.
…
